Ran: 

Model: "sequential_1"
_________________________________________________________________
Layer (type)                 Output Shape              Param #   
=================================================================
conv2d_1 (Conv2D)            (None, 56, 56, 96)        34944     
_________________________________________________________________
max_pooling2d_1 (MaxPooling2 (None, 27, 27, 96)        0         
_________________________________________________________________
conv2d_2 (Conv2D)            (None, 27, 27, 256)       614656    
_________________________________________________________________
max_pooling2d_2 (MaxPooling2 (None, 13, 13, 256)       0         
_________________________________________________________________
flatten_1 (Flatten)          (None, 43264)             0         
_________________________________________________________________
dense_1 (Dense)              (None, 1000)              43265000  
=================================================================
Total params: 43,914,600
Trainable params: 43,914,600
Non-trainable params: 0
_________________________________________________________________
None
