The full Alexnet architecture, but with initial biases set to zero for all layers.
Learning rate still initialized at 0.0001. Leaving out dropout and weight and bias
regularization.

Model: "sequential_1"
_________________________________________________________________
Layer (type)                 Output Shape              Param #   
=================================================================
conv2d_1 (Conv2D)            (None, 56, 56, 96)        34944     
_________________________________________________________________
max_pooling2d_1 (MaxPooling2 (None, 27, 27, 96)        0         
_________________________________________________________________
conv2d_2 (Conv2D)            (None, 27, 27, 256)       614656    
_________________________________________________________________
max_pooling2d_2 (MaxPooling2 (None, 13, 13, 256)       0         
_________________________________________________________________
conv2d_3 (Conv2D)            (None, 13, 13, 384)       885120    
_________________________________________________________________
conv2d_4 (Conv2D)            (None, 13, 13, 384)       1327488   
_________________________________________________________________
conv2d_5 (Conv2D)            (None, 13, 13, 256)       884992    
_________________________________________________________________
max_pooling2d_3 (MaxPooling2 (None, 6, 6, 256)         0         
_________________________________________________________________
flatten_1 (Flatten)          (None, 9216)              0         
_________________________________________________________________
dense_1 (Dense)              (None, 4096)              37752832  
_________________________________________________________________
dense_2 (Dense)              (None, 4096)              16781312  
_________________________________________________________________
dense_3 (Dense)              (None, 1000)              4097000   
=================================================================
Total params: 62,378,344
Trainable params: 62,378,344
Non-trainable params: 0
_________________________________________________________________
None

